model.tflite (tflite, 381376 bytes, 12 tensors)

dense_5/bias f4 [10]
000000 da 23 6c be 96 dc e0 be c8 e0 88 3e a3 00 09 3f
       -0.23060551 -0.43918294 0.26733994 0.53516597
000010 f1 39 9b bd 94 e9 c2 be 0d 7b c7 bd c2 f8 3b bd
       -0.07579411 -0.3806883 -0.09740267 -0.04589153
000020 f6 54 fa 3b 86 e5 a1 be
       0.0076395227 -0.31620425

dense_4/bias f4 [32]
000000 d6 a8 08 bf 30 17 ad be e0 20 9f bd e6 12 7c 3e
       -0.53382623 -0.33806753 -0.07769942 0.24616584
000010 b0 fb 8d 3c 30 c6 17 3f b2 5a 8e 3d de 64 ed 3e
       0.017331928 0.59286785 0.069508925 0.46366018
000020 3d b9 25 3e 0e 5b fa 3d 99 0b 0c 3e d9 99 ce bd
       0.16183944 0.122243986 0.13676299 -0.10087938
000030 e8 d8 40 3d e9 ab 4b be da f5 06 3f 87 94 0a be
       0.047081858 -0.19889797 0.5271889 -0.13533221
000040 b6 8b aa be 6c ba b2 3c 5e 42 72 3e 7f 48 9e 3e
       -0.33309716 0.021817409 0.2365813 0.30914685
000050 90 4d 62 3f dc 1b 75 be d0 32 08 3f 47 7b 80 bd
       0.883996 -0.23936409 0.53202534 -0.06273513
000060 27 e1 3b 3f d0 73 3d 3e eb d3 67 3f 40 f7 78 3e
       0.7339043 0.1850121 0.90557736 0.24313068
000070 27 a4 8c be 27 79 a7 3e 02 ff 00 3e 3d 62 2a 3f
       -0.27468988 0.3270962 0.12597278 0.6655615

dense_3/bias f4 [64]
000000 ac 13 f5 bb d8 93 7b 3d 80 c2 88 3c e4 65 10 3d
       -0.0074791517 0.06142029 0.016694307 0.03525342
000010 8f 5d 00 bd 7a 8f 8c bc 7b 04 aa 3c 2e 01 8c 3d
       -0.031339224 -0.017158259 0.02075409 0.068361625
000020 a7 22 a9 3d cb 4d 57 3c 00 58 26 3d be 0b 3e 3b
       0.082585625 0.013141106 0.040611267 0.0028998698
000030 6e 54 43 bc d6 15 9f 3d 2e ec 77 3d 4d 79 3f 3d
       -0.011921985 0.07767837 0.060527973 0.04674654
000040 55 8c a5 3c 7d 1d ee bb d3 a7 41 3d 50 de 76 bc
       0.020208517 -0.007266699 0.04727919 -0.015067652
000050 b7 b6 93 3c 43 9d bd 3a 19 ce ae 3c 83 6b 8f 3d
       0.018031461 0.0014466423 0.02133851 0.07002928
000060 3a 3a 27 bc e4 d0 11 bc 03 31 35 3d a4 7b 3d 3d
       -0.010206753 -0.008899901 0.044236194 0.04626049
000070 66 35 a3 3d b8 90 2d bc 7e 18 eb 3d a5 58 78 3d
       0.07969169 -0.010593586 0.11479281 0.060631413
000080 87 ed 75 3c 2c 63 c4 bc c5 11 72 bc 5a 26 66 3c
       0.015010244 -0.02397307 -0.014774744 0.01404723
000090 6f 06 92 3d 58 c1 1b 3d e8 f8 16 bc 0d 3e c9 3c
       0.07130133 0.038026184 -0.009214617 0.02456572
0000a0 c3 b3 3d 3d 80 eb e3 bc fb e1 47 3d b0 91 61 bc
       0.046314012 -0.027822256 0.048799496 -0.013767645
0000b0 b8 8a 88 bc 59 9c 24 3d e7 ca b0 3b 33 2e 89 3d
       -0.016667709 0.040188167 0.0053952816 0.06698265
0000c0 df 92 df 3c 72 20 4d 3d df 4e 68 3c b3 6b 95 3d
       0.027291713 0.05007977 0.014178961 0.072959326
0000d0 db 57 11 bc 65 fe 7d 3d 7c cf 30 3d 75 6d 6b bb
       -0.008871044 0.062010188 0.043166623 -0.0035923396
0000e0 0f 2e c9 3c 7f 9b 36 bc 22 1b 11 bd c1 70 8c 3c
       0.024558095 -0.011145472 -0.035426266 0.017143609
0000f0 4c e4 95 3d bf 5e 3f bc ec 23 e4 ba 39 2c 19 3d
       0.07318935 -0.011680304 -0.0017405725 0.03739569

conv1d_5/bias f4 [64]
000000 70 73 f8 3d a0 b4 d5 3d ce bf 08 3e ff 80 e9 3d
       0.12131393 0.10434842 0.13354418 0.11401557
000010 19 93 ca 3d 7c 69 1a 3e bc 5f fb 3d 44 a7 74 3e
       0.09891338 0.15079302 0.12274119 0.23891932
000020 9d 0c e6 3d 2c 63 8b 3e fd 59 46 3e 91 67 d4 bc
       0.112328745 0.272241 0.19370265 -0.02592829
000030 3a 49 3b 3e 88 fc 24 3d da 9d 87 3e e3 99 6c 3e
       0.18289652 0.040279895 0.2648762 0.23105578
000040 cb fd 07 3e 43 db dd 3d b1 88 76 3e e6 5a a7 3d
       0.13280408 0.108328365 0.24075581 0.081716344
000050 46 6c 41 3d a6 df 20 3e dd 07 23 3e 18 c5 b4 3d
       0.0472224 0.15710315 0.15920968 0.08826655
000060 46 cc 12 3e 01 f2 c4 3d 05 d1 9e 3e e6 da f4 3d
       0.14335737 0.09616471 0.31018844 0.11955814
000070 65 23 ad 3d ac 7f c0 bc 2d a0 f7 3d 6a b6 50 3e
       0.084540166 -0.023498379 0.12091098 0.20382085
000080 1b a7 0b 3e 20 83 29 3e c2 a9 00 3e 82 27 91 3e
       0.13637964 0.16553926 0.12564757 0.28350455
000090 9e ad d9 ba c5 f1 5b 3e 6b 9d f5 3d e9 44 6f 3e
       -0.0016607528 0.21478947 0.11992916 0.23366131
0000a0 85 36 f7 3d 7d 9a b6 3e 6c 95 99 3d 9c e1 84 3d
       0.12070946 0.3566474 0.07499203 0.06488344
0000b0 e9 9d 6a 3d 69 d0 81 3e e3 aa 0c 3e 95 5a f3 3d
       0.0572795 0.25354317 0.13737063 0.118825115
0000c0 24 bf 92 3e c7 99 81 3e 8f 91 85 3d 97 98 55 3e
       0.28661454 0.25312635 0.06521904 0.2085899
0000d0 c5 04 98 3e d0 ab 7b 3e 02 50 7c 3d d0 16 0c ba
       0.2969114 0.2457726 0.06159974 -0.00053439755
0000e0 e0 21 ef 3e c1 f9 32 3d 54 22 c3 3d b3 72 a1 3d
       0.46705532 0.043695215 0.09528032 0.07883205
0000f0 44 a4 1d bc 20 c6 2f 3e b9 50 06 3e 88 a9 e7 3d
       -0.0096216835 0.17165422 0.13116731 0.113116324

conv1d_4/bias f4 [32]
000000 7d c5 36 bb 45 35 e8 3c 40 a6 f4 3b 65 2d 04 3d
       -0.0027888708 0.028345713 0.0074661076 0.032269854
000010 c7 d4 88 bc 79 73 07 bd a9 46 82 3d 38 f8 a1 3d
       -0.016703023 -0.033069108 0.063611336 0.07908672
000020 9b 05 93 3c e5 aa 66 3d f7 da 47 3b b3 62 56 bc
       0.017947009 0.05631532 0.0030495503 -0.013085055
000030 16 16 86 bc c2 49 c2 3b 25 07 e4 3a 94 5d b9 3b
       -0.016367953 0.005929203 0.0017397149 0.0056569073
000040 7b be 84 3c 2c c8 4b bc d0 05 b6 3d bf dc 7d bc
       0.01620411 -0.012437861 0.088878274 -0.0154945245
000050 75 24 a0 bc 69 b9 d6 3c 8a 94 ff 3a 38 0b 1f 3d
       -0.019548634 0.026211457 0.0019499224 0.03882906
000060 d4 78 e6 3b be 96 a0 3c e3 0e 0c bf b0 b6 e2 bc
       0.007033447 0.01960313 -0.54710215 -0.027675003
000070 4d 77 62 3b 69 5e 31 3c ba 9a bb 3c 97 f9 8f bc
       0.0034555972 0.010825732 0.022900928 -0.017575068

conv1d_3/bias f4 [32]
000000 4f 87 80 bc 33 47 e9 bb d0 e0 70 bc f4 c5 d4 bc
       -0.01568952 -0.0071190833 -0.014702037 -0.025973298
000010 f3 18 e1 3c 37 38 d5 bc b8 07 b7 bc 3b 50 59 bd
       0.027477717 -0.026027782 -0.022342548 -0.05305503
000020 1c de 20 3d f5 b1 92 3c 39 eb 03 3c c6 fb 4f 3d
       0.03927432 0.017907122 0.008051687 0.05077722
000030 97 4c 69 bc db 97 4c 3c 6f d8 f7 3c 2d 38 f8 3c
       -0.014239452 0.012487377 0.03025457 0.030300224
000040 6e f0 90 bd 7b 4d 39 3d e0 d1 d6 bb bc 3b 00 bd
       -0.07077108 0.045239907 -0.006555781 -0.031306967
000050 6e b6 3c bd f1 55 1c bc 69 88 51 bb 2e d1 2e bc
       -0.046072416 -0.009541974 -0.0031972176 -0.0106699895
000060 e5 99 07 3c ca 9c 5e bc 19 7d b5 3b f2 bb 6b bd
       0.008276437 -0.013587186 0.0055385944 -0.057552285
000070 d3 47 60 bc 42 34 e6 bc de 60 4e bb fc 7b ef 3b
       -0.013688999 -0.02810109 -0.0031490843 0.0073084813

sequential_1/dense_3/MatMul f4 [64, 1280]
000000 ae d9 8b 3d 12 ab b9 3d b6 5b f9 bd c7 13 88 bd
       0.068286285 0.09065832 -0.121756956 -0.06644397
000010 8f fd a3 3e b9 b7 a8 bb f3 76 40 3e df 8f 12 be
       0.32029387 -0.0051488546 0.18795376 -0.14312695
000020 e9 66 b3 be af b7 0d 3e dc 9b 55 be 7f 7b 35 3e
       -0.35039452 0.13839601 -0.20860237 0.17722891
000030 d0 27 c3 3d 55 53 f7 bd 92 90 c7 bc 4a 5d 60 be
       0.09529078 -0.12076441 -0.024360929 -0.21910587
000040 bf 2a 26 3d 3d 5d 3b be 2f 47 96 3d ea 9c c3 3c
       0.04056811 -0.18297286 0.07337796 0.023878533
000050 43 27 94 be 04 ad 72 3c 00 ea 16 3c 5c c9 94 3e
       -0.28936204 0.014811758 0.009211063 0.29059875
000060 b6 ba ba be 26 41 68 be 1d 92 ac bc a3 12 2f bd
       -0.36470574 -0.22681102 -0.021065766 -0.042742383
000070 81 89 03 bc 6d 77 67 be e3 8a e4 bc 65 7f 13 bd
       -0.008028389 -0.22604151 -0.027898258 -0.036010165
000080 37 35 b4 3d ba a7 f3 3d 19 eb 30 3e 72 07 d0 bd
       0.087992124 0.11897226 0.17277183 -0.1015767
000090 77 20 29 3e 4d a8 82 bd 85 08 a7 bd d0 77 3a be
       0.1651629 -0.06379757 -0.08155922 -0.18209767
0000a0 d1 8e 9b 3e 8b 08 52 3d b4 18 33 be c0 84 88 3e
       0.30382398 0.05127768 -0.17489892 0.2666378
0000b0 5c f3 bc bd cc 9d e8 3c 35 19 68 bd ed b4 1d 3d
       -0.092261046 0.028395556 -0.056664664 0.038502622
0000c0 e7 17 1c be f8 aa 7c bd 50 b6 2b be ae 28 4e be
       -0.15243493 -0.061686486 -0.16768765 -0.20132706
0000d0 3d 63 05 3e 38 1b cd 3c 48 ea 12 be a4 4a a6 3c
       0.13026138 0.025037393 -0.14347184 0.020299263
0000e0 68 3e 89 3d 4d 5c b8 3e 5a d6 60 bd d0 f7 69 3d
       0.06701356 0.3600792 -0.05489192 0.057121098
0000f0 a1 3d 6c be a4 5b 38 bc 47 31 88 be bf d5 65 be
       -0.23070385 -0.011252318 -0.26600096 -0.22444819
000100 14 dd 4b be 28 c1 bf 3c 1b db 39 3e 12 6a 88 be
       -0.19908553 0.023407534 0.18149988 -0.26643425
000110 69 24 16 3e c8 9c b2 be fb 46 02 be 1e ad 8c be
       0.14662327 -0.3488524 -0.1272239 -0.27475828
000120 7c 69 30 be e1 bb 22 3e 82 11 f4 bc 71 72 07 3e
       -0.17227739 0.15891983 -0.029793505 0.1322725
000130 73 09 46 be 54 62 9e bc 78 3b 18 be 22 d2 a2 3d
       -0.19339542 -0.019333996 -0.14866436 0.07950236
000140 46 bb 35 be 25 72 20 be cf 59 bb 3d 17 9f 9d bd
       -0.1774722 -0.15668543 0.09147989 -0.076963596
000150 00 a5 cb bd 7a a1 70 3d 9a 51 b1 bb fc f7 02 3e
       -0.099435806 0.058747746 -0.005411339 0.12789911
000160 8c 85 09 be de f9 ae bd 4f 69 e8 3c c6 7a b1 bd
       -0.1342985 -0.08543752 0.028370528 -0.08665995
000170 bc 8a 1f be b7 08 17 3e e8 8c 39 be bf f8 86 be
       -0.15580267 0.14749418 -0.18120158 -0.26361653
000180 6c 49 67 be f7 7a 2d 3d ae b8 79 3d 5a 3e 61 bd
       -0.22586602 0.042353597 0.06096714 -0.054991104
000190 da 05 3c 3e 1c ce 81 be b8 1c 0d be 14 71 96 bd
       0.18361607 -0.2535256 -0.13780487 -0.07345787
0001a0 43 55 d8 bd c7 18 45 be 52 bd c0 bd ad 11 55 3e
       -0.105631374 -0.19247733 -0.0941111 0.20807524
0001b0 ab f5 01 3c 31 be f5 bd fe 3d 6c 3d 5d 66 8c be
       0.007932107 -0.11999167 0.057676308 -0.27421847
0001c0 90 76 98 be 8c 61 23 be ae c4 04 bd 4c a1 86 3c
       -0.29777956 -0.1595518 -0.03241413 0.016434334
0001d0 03 2e 6b 3e ae 93 8a 3d ab 3d 2f 3e b8 58 6a 3e
       0.22966771 0.06766449 0.17113368 0.22885406
0001e0 d8 53 f4 3e a7 78 06 3e ef d8 ab be 03 d0 60 3d
       0.47720218 0.13131963 -0.33563945 0.054885875
0001f0 6c b9 90 3c 15 af 0c bc 94 56 28 3e fb ba bc ba
       0.017666541 -0.008586665 0.16439277 -0.0014398986
000200 47 f7 98 3d 0b 2e d4 bd e4 a3 4b 3e 16 f4 6b bb
       0.074690394 -0.103603445 0.19886738 -0.003600364
000210 97 7e 8f 3c ec cd 11 3e f8 94 86 3d 03 46 44 3e
       0.017516417 0.14238709 0.06571382 0.19167332
000220 0b 34 5f bb cc 62 14 3e 7b 31 85 3d 94 ab 3d be
       -0.003405812 0.14490813 0.06503578 -0.18522483
000230 d5 a7 ec bc f8 02 72 bd c2 a8 fa 3b bc 93 36 bb
       -0.028888622 -0.059084862 0.007649512 -0.0027859053
000240 98 16 cc 3c 69 ee ba bd 10 e3 a1 3d 48 f3 12 3e
       0.024913117 -0.091275044 0.07904637 0.14350617
000250 a2 4a 23 3d 26 aa 30 3e b3 a5 f0 bd 99 69 b6 3c
       0.039866097 0.17252406 -0.117503546 0.02226715
000260 a4 e5 fa bd 5c 99 4d bd 39 f2 1c 3e cd 1f bd bd
       -0.12250832 -0.050195083 0.15326776 -0.09234581
000270 ef 93 4b bc 7c f4 a5 bc 4a f3 5a bc 74 b1 24 3e
       -0.012425407 -0.02025818 -0.013363669 0.16083318
000280 f6 fb 0b 3e 85 56 b6 bc 1e 48 8b 3b bf c3 07 3d
       0.13670334 -0.022258053 0.0042505404 0.033145662
000290 5b 13 63 bd 68 ef 6f 3e 8f 60 46 3c bc 9e 08 3e
       -0.05543838 0.2343117 0.012107982 0.13341802
0002a0 4c 16 a7 3d 98 b3 f4 bc 88 d0 62 3d 38 af 92 bd
       0.0815855 -0.029870793 0.055374652 -0.071623266
0002b0 3b d5 3a be b2 72 08 bc 12 7f 29 be 5a c4 eb 3c
       -0.18245403 -0.008328127 -0.1655238 0.028780151
0002c0 c2 54 f4 3d 63 5c 41 3e 4b 3a 14 3e 96 0d 1b be
       0.11930229 0.18882899 0.14475362 -0.15141901
0002d0 1e c2 d7 bc 81 0f 23 3e 84 5b f2 3c 21 07 25 3e
       -0.02633768 0.15923883 0.029584654 0.16116
0002e0 2c b6 d8 bc 77 f4 f0 3d 92 e5 16 3c fb 78 07 be
       -0.026454054 0.11765378 0.009210007 -0.13229744
0002f0 4a b2 ca 3d 3c cf 91 bd 04 5c ed bd 61 0d ae bc
       0.09897287 -0.07119605 -0.11589816 -0.021246614
000300 0f 07 77 bd 34 81 5e 3c b7 00 35 3c d1 09 2b be
       -0.060309466 0.013580609 0.011047534 -0.16702963
000310 b4 05 62 3c fe 3b ae bc ac 47 85 bd 8e a5 4e 3e
       0.013795305 -0.02126884 -0.06507811 0.20180342
000320 15 9a 6d be 66 3b 07 bc cf fc 2d bd 25 4b 27 bd
       -0.23203309 -0.008253908 -0.042477425 -0.040843148
000330 cf 6b fe 3c 04 9f 87 bc ce cf a1 3c d4 d9 88 be
       0.031057267 -0.016555317 0.01975241 -0.2672869
000340 31 52 b3 3d 21 91 d9 3c a9 55 47 bd 6f a0 16 3a
       0.08755911 0.02655846 -0.048665676 0.00057459524
000350 70 ea 80 bc 7f c6 a8 3b bc d7 1b be 95 0b 02 3c
       -0.015736789 0.0051506157 -0.15219015 0.007937332
000360 28 1f 3c bd 81 6e 4d be cc 27 b3 3c 4c 63 a3 bd
       -0.04592815 -0.20061685 0.021869563 -0.07977924
000370 c3 c7 47 be 0b 65 87 3c 3f bb ce be 0b ca 86 be
       -0.19509797 0.016527673 -0.40377232 -0.26326022
000380 44 c0 20 be 11 89 a8 3d ed c5 07 3d ab 37 92 bb
       -0.15698344 0.08229268 0.03314774 -0.0044622025
000390 12 8f 06 bb 52 8b 82 bc 9b e2 fd bd fc a6 70 bb
       -0.0020532054 -0.015935574 -0.12396737 -0.0036720624
0003a0 5c b1 ac 3d 5a 5a 38 be e8 4d be 3b fb 1a 1d 3d
       0.08432266 -0.18003216 0.005807627 0.03835581
0003b0 1b aa 7c be 5d 3d 2f bc da cf 92 be 60 64 46 3b
       -0.24674265 -0.0106957825 -0.28674203 0.003027223
0003c0 4f ee 25 bf db b9 29 3d 75 2c cd bb 1d 34 22 be
       -0.64816755 0.04143701 -0.006261403 -0.15840192
0003d0 49 a1 41 3e bc 84 7d 3c 3b 22 f8 bc 2e e4 e7 bc
       0.18909182 0.015473541 -0.03028976 -0.028307047
0003e0 2e 8b c3 be c5 72 91 3c d1 64 19 bd 67 60 24 be
       -0.38192123 0.017754922 -0.03744966 -0.160524
0003f0 3a fb 92 3c 96 46 09 bd d3 98 1a bf 8f b7 70 3d
       0.01794206 -0.03351458 -0.6038944 0.058768805

sequential_1/dense_4/MatMul f4 [32, 64]
000000 b7 aa 1f be c7 3b 99 3d 22 fa 42 be 21 57 4d bd
       -0.15592466 0.07482105 -0.1904073 -0.05013192
000010 20 d2 5d be 79 28 f6 3d 96 ec 94 be 82 29 38 3e
       -0.21662188 0.12019438 -0.2908675 0.17984584
000020 22 9d 56 3d ba 64 0b 3e 50 f3 de be 0b af 25 3d
       0.052395947 0.13612643 -0.43545008 0.040450137
000030 68 49 4e be 00 dd 2e 3e cd 11 b9 bd 56 91 58 bd
       -0.2014519 0.17076492 -0.09036598 -0.05287298
000040 25 eb 76 be 0e 29 2f be d7 a2 b5 be c7 e7 0e 3e
       -0.24113138 -0.17105505 -0.354758 0.13955604
000050 d8 97 60 3d 7e 23 61 3e 84 79 10 3e 1d 43 14 be
       0.05483231 0.21986195 0.14108855 -0.14478727
000060 7e 87 4a 3e a9 3b 49 be 69 4a 20 3e 12 5f 90 be
       0.19778249 -0.19651665 0.15653385 -0.28197533
000070 bd 13 64 be cb 06 14 3b 0d 0f bf be b8 76 3f be
       -0.22273155 0.0022587057 -0.3731617 -0.18697631
000080 09 5c fa 3d f3 60 78 be ae 7f 05 3d e0 5c 12 be
       0.122245856 -0.24255733 0.032592468 -0.14293242
000090 53 95 1a 3c bc 57 82 be 59 95 05 3c 1a 0e 77 bc
       0.009435016 -0.2545756 0.008153283 -0.015079046
0000a0 b3 64 b6 3e b2 14 18 be 78 07 11 3e 27 88 3b be
       0.35623702 -0.14851645 0.14163005 -0.18313657
0000b0 e7 79 d8 3e c5 a7 84 3d 1d d8 05 bf 53 b4 8f 3d
       0.42280504 0.06477312 -0.5228289 0.07016816
0000c0 8d 96 98 be 30 52 1c bc 0b 06 62 3e 82 93 1f bf
       -0.2980236 -0.009541079 0.22072618 -0.62334454
0000d0 60 7e 4c bb 00 8d ae bc 8c 98 75 3d 30 ab 7f 3d
       -0.0031203255 -0.021307468 0.059959933 0.062419116
0000e0 35 f6 a6 3c 24 8a 50 bc 49 e7 6b 3e 6b 7c 7a 3b
       0.020381073 -0.012728248 0.23037447 0.0038221132
0000f0 31 0f 95 3e a4 5b fa 3d 34 3e 04 3e ea 74 ae 3e
       0.29113153 0.1222451 0.12914354 0.34073573
000100 bd a6 0a bd 41 3d 8d 3c ca 81 b9 3d 1e 13 1f 3d
       -0.03385042 0.017241122 0.090579584 0.03883659
000110 fd 56 0f 3e 2d c6 df 3a 11 d5 90 3e 0e db bc 3d
       0.13998027 0.0017072611 0.28287557 0.09221469
000120 b2 5b 47 3d 03 87 3f bd 23 35 97 be f3 7b f1 3d
       0.04867143 -0.046759617 -0.29532728 0.117912196
000130 38 38 e6 3c 8c 6b 44 3e 51 10 09 bc a7 66 8e 3e
       0.028102979 0.19181651 -0.008365707 0.27812693
000140 dd f0 2a be ef 9b 10 be 29 79 98 3d c6 d2 b6 3d
       -0.16693445 -0.14121984 0.074449845 0.089269206
000150 6e f4 de bd ad 4c e9 3e 2e b7 89 bc ab e9 b9 bd
       -0.10886465 0.4556631 -0.01681098 -0.09077772
000160 4a 06 4d be 21 71 bb bd ad 2b d4 3d 2a 43 4c bc
       -0.2002193 -0.09152437 0.10359893 -0.012467185
000170 b3 2d b7 bd 9a a3 26 be b2 b2 7e be 41 d5 24 3e
       -0.08944263 -0.16273347 -0.24872854 0.16096975
000180 59 ec 93 3e 12 17 59 be e2 7a 4c bd a5 5c 2f 3e
       0.28891256 -0.21200207 -0.049921878 0.17125185
000190 0a a7 f3 3d 1b fb ef bc 5c ff 3e be 04 fe 59 bd
       0.118970945 -0.029294541 -0.186521 -0.053220764
0001a0 86 9f fb be e5 46 88 3e 21 b0 33 3e bb f2 0c be
       -0.49145144 0.26616588 0.17547657 -0.1376447
0001b0 6e 9d f8 3e a8 ab 5c b7 42 f7 b1 3d 87 14 a0 bb
       0.4855761 -1.3152989e-05 0.08689739 -0.0048852596
0001c0 9d 40 f9 bc eb 24 72 3e c0 97 c4 3c 1f 29 15 be
       -0.030426318 0.23646896 0.023998141 -0.14566468
0001d0 f9 6c de bc b3 d9 4d be 9a fd 83 3e f0 eb 34 3e
       -0.027151572 -0.20102577 0.2577942 0.17668128
0001e0 c2 13 44 3e 4c e6 ee 3d 0c 09 57 3e 7c 7d fd 3c
       0.19148162 0.116650194 0.20999545 0.030943625
0001f0 2d b7 eb bc 4e 9a 9b bc 38 11 1e 3f a1 1d 13 bd
       -0.028773868 -0.018994477 0.61745024 -0.03591693
000200 8a 27 f9 bd 53 b8 d8 bd 77 2b 62 bd 02 f8 1a bd
       -0.121657446 -0.10582032 -0.055217233 -0.037834175
000210 1f fc d3 3c 8d c6 e7 bd c8 dc f8 3d d8 61 e5 3d
       0.025877057 -0.113171674 0.12151486 0.11200303
000220 64 d7 f2 be 0d 00 35 3a c4 50 bf bd 0e 9b 3d 3d
       -0.47429955 0.00069046096 -0.09341577 0.04629045
000230 50 ad 4c be 43 7b b6 3e 03 e3 0f bd d3 2b 0b bd
       -0.19987988 0.35640916 -0.035128605 -0.03397734
000240 26 7f 60 3e 0f b7 f1 3d 15 5a ea be 9f e7 24 3d
       0.21923503 0.11802494 -0.45771852 0.040259954
000250 31 cd ab 3d ba fb dc 3e d1 77 5e 3d 11 4a b0 bd
       0.083887465 0.43160802 0.054313485 -0.08607877
000260 64 e8 70 3e a3 8b 06 be ee 84 bf be cc 23 6e be
       0.2352615 -0.13139205 -0.37406105 -0.23255843
000270 05 54 a0 be f1 40 06 3d 74 94 00 bf 9f df 92 bd
       -0.31314102 0.032776777 -0.5022652 -0.071715586
000280 9e 18 9c 3e d3 0f d8 3d d4 35 4b 3e 7b de 07 bd
       0.3048753 0.10549893 0.19844753 -0.03317116
000290 e8 bd c2 be db d4 38 3b 44 68 bd bb 7e d8 8c 3e
       -0.38035512 0.0028203044 -0.0057802517 0.2750892
0002a0 c1 e8 b0 be 8d 3c 35 be d9 c3 3c 3e 20 4a 34 be
       -0.34552577 -0.1769888 0.18434085 -0.17606401
0002b0 1a 21 0a 3f 41 16 9f 3c 7c b7 23 bd f7 27 b1 bd
       0.5395676 0.019419791 -0.039969906 -0.08650201
0002c0 ab b4 ec bd 54 fb d1 be 0e a3 fe 3c c8 51 54 bf
       -0.11557897 -0.4101206 0.03108361 -0.8293729
0002d0 b5 0c f9 bd 55 6a 9e be c3 0a 4d be ce d3 2d bd
       -0.12160627 -0.309405 -0.20023637 -0.04243832
0002e0 36 36 e8 be 1a cc e6 bc e3 17 90 3e 1d 2f 20 be
       -0.4535386 -0.028173495 0.28143224 -0.15642972
0002f0 2b fd ba bc f0 36 ac 3d aa c4 63 3e e9 fc 27 3e
       -0.022825798 0.08408916 0.2224299 0.16405071
000300 dc 6a ef 3c 4d 6f e6 3d 33 3d db be 37 b9 4e bd
       0.02922576 0.11251698 -0.4282013 -0.050469603
000310 d5 79 3c bd 58 5f a6 bd 59 49 1a be 2a 1e 13 3e
       -0.046014626 -0.08123654 -0.15067042 0.14366975
000320 6e 10 83 be e3 c5 0a 3d 69 0e f6 be 5c 09 32 be
       -0.25598472 0.033880126 -0.4805787 -0.17386383
000330 a3 99 72 bd 61 f6 a5 3b 86 d8 62 be a6 c2 e6 bb
       -0.05922855 0.005064771 -0.2215291 -0.007042247
000340 bc 8d 87 bd 05 60 22 3d e0 7c d7 be ff 7e 56 3e
       -0.066188306 0.039642353 -0.4208746 0.20946883
000350 62 d9 d2 bd c2 dc 4e bd 51 b0 3c 3d 8d 16 fd bd
       -0.10295369 -0.0505035 0.046066586 -0.12357817
000360 93 f7 a0 bd 9b bd 96 3d 96 42 39 3e ac 23 cf bd
       -0.07859721 0.07360383 0.18091807 -0.10114226
000370 d2 4a c2 3c 5b b1 63 be 58 78 27 bf 53 84 8f be
       0.023717318 -0.22235624 -0.65418005 -0.28030643
000380 2e 4e de bd c1 40 13 bd 24 5b 58 3e 1e 26 63 bd
       -0.10854755 -0.035950426 0.21128517 -0.055456273
000390 4b 34 01 be e0 59 aa bd 12 01 57 3c 5d 85 85 3d
       -0.12617604 -0.083179235 0.013122814 0.06519578
0003a0 df ee 85 be 9f c0 8d be c6 69 38 3e 09 e4 50 3e
       -0.26158807 -0.2768602 0.180091 0.20399489
0003b0 64 01 34 3e ed d2 4c bd a6 24 a9 be ed a3 83 3e
       0.17578655 -0.050005842 -0.33035773 0.25711003
0003c0 43 49 99 bd 66 ca 6c 3e 1c de 91 3e 41 de ca be
       -0.07484677 0.23124084 0.28489769 -0.3962269
0003d0 6c 99 b9 bd 9f d6 4c 3e fb a1 4c be 94 d8 a8 3c
       -0.09062466 0.20003746 -0.19983666 0.020611085
0003e0 71 1a 9d bd 15 7b 69 3e 59 1c c5 3e 67 3c 6f bd
       -0.07671059 0.22800858 0.3849819 -0.058407214
0003f0 45 2d 5f 3d e9 57 52 3e 3f 0a 09 3e ad 7a 86 3e
       0.05448653 0.20541348 0.13382815 0.2626547

sequential_1/dense_5/MatMul f4 [10, 32]
000000 50 50 34 3e ba b6 15 be f4 63 99 be 17 58 19 3e
       0.17608762 -0.14620486 -0.2995907 0.1497501
000010 06 1c 35 3e e1 5e 29 3f 86 0f 0a bf d4 e5 e5 be
       0.17686471 0.661604 -0.53929937 -0.44901907
000020 02 56 db 3e f3 3d 66 bd 82 76 96 3e a6 cb c1 be
       0.42839056 -0.056211423 0.2938729 -0.37850684
000030 3e 87 b4 bd cf 1e 97 3e 41 e9 89 bf b5 9a ec be
       -0.08814858 0.29515693 -1.0774308 -0.46211782
000040 2f f3 d4 be c9 2b 58 3e 8e 23 89 3d 7c 3f 2f bf
       -0.41591784 0.21110453 0.06696235 -0.68456244
000050 ea a6 48 bf 4d 9b 96 3e 9d 98 b4 3e 74 cb 44 bf
       -0.7837969 0.2941536 0.35272685 -0.76872945
000060 05 e0 93 be 28 8b 87 3d d0 78 63 bf af cb 39 bf
       -0.2888185 0.06618339 -0.8885622 -0.7257642
000070 88 f1 79 be e6 c3 c9 bd 32 09 9d be 72 6e fb bd
       -0.24408543 -0.09851818 -0.30671078 -0.12276925
000080 7a c5 0d be 2d 86 80 be ea c6 90 be 68 9f 1f be
       -0.13844863 -0.25102368 -0.2827676 -0.15588152
000090 6e 31 36 3c aa 12 96 bf 29 ce b6 3c e6 79 2e bd
       0.011120183 -1.1724446 0.022315102 -0.04259672
0000a0 fb 5b 85 be 84 a4 34 be de bc e6 3e 4f 9f cb bc
       -0.26046738 -0.17640883 0.4506597 -0.024856238
0000b0 de 40 7a be ed 25 5d bf 70 a1 e7 be 3d 4c fc be
       -0.24438807 -0.86385995 -0.45240355 -0.49276915
0000c0 06 15 5a 3e 8e e3 54 3e f6 75 f3 3e 76 bf ae be
       0.21297082 0.2078993 0.47550935 -0.34130448
0000d0 39 4e b5 ba cc 94 87 3e d7 f7 38 be 90 08 a0 bd
       -0.0013832516 0.2648071 -0.18063293 -0.07814133
0000e0 bd 84 03 bd 3e 52 e9 3d 6a 79 cd be 48 81 4c be
       -0.03210901 0.113926396 -0.40131694 -0.19971192
0000f0 cf a6 b2 3e 71 1a 28 bd 99 7d 30 3f a2 ee ba 3d
       0.3489289 -0.04104084 0.68941647 0.09127547
000100 79 69 ea 3e 9f 71 9e be c3 48 c5 bc bb 77 96 be
       0.45783594 -0.3094606 -0.024082547 -0.29388222
000110 c4 7d 7d 3e f0 39 53 bf 1e ca 87 3e fa ef 9c ba
       0.24755007 -0.8251028 0.2652139 -0.0011973374
000120 b9 60 f2 be 49 9f 8c 3e a6 07 c2 3d 4f 83 45 3d
       -0.4733942 0.27465275 0.09474115 0.04822093
000130 f5 02 91 3e 1c 22 67 be 76 0e de be 54 3a 00 bf
       0.2832257 -0.22571605 -0.43370408 -0.50089
000140 6a 7d a0 be 24 1a cc 3e 98 99 0e be b2 54 b2 bd
       -0.31345683 0.39863694 -0.13925779 -0.087075606
000150 0c 42 a3 be ed 8b 9e 3d cf 7f c9 3e 93 d0 d4 3e
       -0.31886327 0.077415325 0.39355323 0.4156538
000160 3e 6a 59 3e 42 12 9e 3d 31 c9 2e bf ee 8e e8 bd
       0.21231934 0.07718326 -0.68275744 -0.11355387
000170 e7 cf 1c 3d a1 69 12 bd d8 2b 1f 3e 4f ce b8 bc
       0.03828421 -0.035745267 0.15544069 -0.022559313
000180 e5 22 83 bd ea e7 28 be 2c e4 fd be a8 62 d1 be
       -0.0640314 -0.16494718 -0.49588144 -0.4089558
000190 c4 88 18 be 10 2b 00 bf ef 99 f0 3e 1f fc 95 3e
       -0.14895922 -0.5006571 0.46992442 0.29293916
0001a0 25 7f b0 be 72 44 99 3e 3c 2d e8 be 92 ca ae 3e
       -0.34472004 0.29935032 -0.4534701 0.34138924
0001b0 08 01 c7 bd 8f 00 eb be 5b aa ac be c0 52 0b be
       -0.097169936 -0.45898864 -0.3372372 -0.13605785
0001c0 fb dd 17 be 8a fb dc 3e e4 fe 08 3e ce b7 f9 bd
       -0.14830773 0.4316066 0.13378483 -0.12193261
0001d0 a2 de 0b 3f e9 fe 79 be 35 9c e0 3e 4d de 6f be
       0.54636586 -0.24413647 0.43869177 -0.23424645
0001e0 86 65 8f 3e 94 6f c9 bd f7 4b 06 bf 9d 4e 00 3e
       0.28007144 -0.09835735 -0.52459663 0.12529989
0001f0 07 72 11 3f d1 ac 3d bd 24 e1 6f 3e 98 93 c4 3e
       0.56814617 -0.04630739 0.23425728 0.38393855
000200 01 7c 0b 3e 01 1a 07 3e f8 51 9c 3e fa 5e c8 3e
       0.13621522 0.13193513 0.30531287 0.3913496
000210 b6 e6 3b 3d 26 f7 82 3d dd 29 a1 3e b1 52 82 be
       0.04587432 0.06394796 0.31477252 -0.25453714
000220 74 6c 86 3e 0f c8 dd bc 82 04 e5 bd 6f 92 e3 3d
       0.26254618 -0.027072934 -0.111825004 0.11111914
000230 90 7b bb bd fa 82 0e 3e 8c d1 3e 3d 3f 19 4f bf
       -0.09154427 0.13917151 0.04658656 -0.808979
000240 aa e1 1b 3f f7 af ab be f2 c0 ac be 7f 4e 03 bf
       0.6089121 -0.33532688 -0.33740956 -0.5129165
000250 61 5c 27 be ac 26 b4 3e 87 18 8f bd 7d 28 af be
       -0.16343834 0.35185754 -0.069871 -0.34210578
000260 c3 c7 6f 3e 18 0c 11 3e 84 2e bc 3e 7e 3b 1b 3e
       0.23416047 0.1416477 0.3675424 0.15159413
000270 b5 e0 7f 3e 04 74 0c 3f 3e f5 21 bd 41 cd 8b 3d
       0.24988063 0.54864526 -0.03954052 0.068262585
000280 f2 34 24 3f 01 fb 05 be f7 37 c1 3e 20 98 8d 3e
       0.6414329 -0.13084032 0.3773801 0.27655125
000290 b4 6b 32 3e aa 48 eb be 4a 3b ac 3e 8b 4d 3c 3e
       0.17423898 -0.45953876 0.33638984 0.18388955
0002a0 62 69 99 be 6f f7 8a 3e f7 33 e3 be 4c 9d f1 3d
       -0.29963213 0.27141902 -0.44375584 0.1179758
0002b0 01 19 c2 be ea da cc 3d 2f a0 d7 be cc c8 a4 3f
       -0.379097 0.10002692 -0.42114398 1.2873778
0002c0 a8 cb 19 be c0 20 1b 3e a9 9f f5 3c ef 9b 33 be
       -0.15019095 0.15149212 0.029983358 -0.17539953
0002d0 5b 73 8c be b1 fd c8 3e 65 e1 36 3e d1 be 96 bd
       -0.2743176 0.3925605 0.17859419 -0.07360614
0002e0 fa 33 c7 be 8e fd 30 bf ee 4d 86 be d7 a9 6b 3e
       -0.38906842 -0.69136894 -0.2623133 0.23014008
0002f0 11 6d a9 3d 83 e4 7f be ec 1a c4 3d 41 5f 79 be
       0.08272756 -0.24989514 0.095754474 -0.24352743
000300 cb 97 27 3e e0 be 9f bd b9 e2 8c 3d 89 f9 e8 3b
       0.16366498 -0.078000784 0.068791814 0.007109825
000310 53 ad dc be c1 67 c0 3e 59 13 b4 3e 36 0c bb be
       -0.43100986 0.37579158 0.3517101 -0.36532754
000320 04 57 f1 3d c2 9b c2 3e ae 96 0e 3e 2f d4 68 bd
       0.11784175 0.3800946 0.13924667 -0.05684298
000330 0f 43 4c 3e c1 ae 04 3f 64 5a cf bd 54 c0 40 bf
       0.19947456 0.51829153 -0.101246625 -0.7529347
000340 38 92 7c be 90 25 71 3e bd 0f 14 bf 2f ee 82 be
       -0.24665153 0.23549485 -0.57836515 -0.25572345
000350 f5 0a 39 be 36 42 66 be 53 55 32 3e 48 74 d9 3e
       -0.18070586 -0.22486195 0.17415361 0.42471528
000360 13 01 88 be c0 62 8e 3e eb 4c 8d 3e 82 ee 87 3e
       -0.2656332 0.27809715 0.27597746 0.26549155
000370 dc 6d 2d 3e d1 23 7c 3d e1 df 3d 3e 51 7a 89 be
       0.1693644 0.061557595 0.18542434 -0.26851133
000380 e6 5a 4b bf 01 28 c2 bc b7 c2 9b 3d 86 98 92 bc
       -0.79435575 -0.023700716 0.07605498 -0.017894994
000390 08 07 9c 3e 60 ef 81 be 95 a6 84 be 15 02 57 3d
       0.30474114 -0.2537794 -0.25908342 0.05249222
0003a0 1f e9 ad 3e cc fd 68 be de e7 f9 3e da d4 e2 be
       0.3396692 -0.22753066 0.48809713 -0.44303018
0003b0 75 5a bf be 7e d2 e2 3c 7e c9 33 3f e7 7a a1 3c
       -0.373737 0.027688261 0.7022933 0.019711925
0003c0 57 16 b1 be 01 86 aa be 1b 13 40 3e 1a 23 26 3f
       -0.34587356 -0.33305362 0.18757288 0.6489731
0003d0 a5 a0 1a 3f 64 aa 0f be bd 2c a7 3e 50 0c 2f 3f
       0.60401374 -0.14029843 0.3265132 0.6837816
0003e0 88 1b d0 bc 1e a4 46 3d 05 ac a4 3e 4c 7a 18 bf
       -0.025403753 0.048496358 0.3216249 -0.5956161
0003f0 36 f4 00 bf 2a 18 4b bf d6 33 ca bc 7f ec 3a be
       -0.50372636 -0.79333746 -0.02468292 -0.18254279

sequential_1/conv1d_3/Conv1D f4 [32, 1, 3, 1]
000000 99 2c 71 bf da 03 8b 3e 36 b2 57 bd b7 53 90 be
       -0.94208676 0.27151376 -0.05266019 -0.2818887
000010 7e ee ff 3e aa 95 c2 3e 7a 78 39 3f 5a 54 f5 3e
       0.49986643 0.3800481 0.7244946 0.47915918
000020 6c 59 9f be d5 06 00 3f 9e 56 0e 3f fb 10 0b bd
       -0.3112291 0.50010425 0.5560092 -0.03395174
000030 04 57 7a bf bf 2d 22 3e b8 f9 15 be 3d 3b b0 3e
       -0.97789025 0.15837763 -0.14646041 0.34420195
000040 68 b5 43 3f 75 f1 21 be 17 8f 48 3f 37 e9 80 3e
       0.7644868 -0.15814765 0.7834334 0.2517793
000050 69 93 9c be 33 b9 05 3e 7b c4 17 3f e6 84 70 3e
       -0.30581215 0.13058929 0.5928418 0.23488197
000060 b6 a4 5a 3f 66 b1 22 3f e3 81 8e be 25 c3 1f bf
       0.8540758 0.6355194 -0.2783347 -0.6240714
000070 b7 58 19 3f 66 15 6b 3c 30 a2 b8 3e 90 8b e6 3e
       0.59900993 0.0143483635 0.3606124 0.45028353
000080 07 eb 4d 3e 84 2f 4b bd 46 71 fa be c4 b2 49 be
       0.20109187 -0.04960586 -0.48914546 -0.196971
000090 30 34 07 3f 95 cb c9 3e ef 6b f7 3e 09 07 07 bf
       0.52814007 0.39413133 0.48324534 -0.5274511
0000a0 cb 02 17 bf 7c 89 83 be 45 17 0e bf 4e 49 c5 be
       -0.58988637 -0.2569083 -0.55504256 -0.3853249
0000b0 cb eb dc bc 14 d1 53 bf d1 1f 45 be a4 7b b9 be
       -0.026967904 -0.827409 -0.19250418 -0.36227143
0000c0 f0 8f 33 bf f8 5f 59 be 4c a5 75 3e 38 5e 89 3e
       -0.70141506 -0.21228015 0.23988837 0.26829696
0000d0 d1 e8 17 bf 97 54 cd be 2f f2 42 be b2 80 e1 3e
       -0.59339625 -0.401036 -0.19037698 0.440435
0000e0 a3 f4 17 3f c0 f4 90 3f a2 06 8c 3e f9 c4 56 be
       0.5935766 1.1324692 0.2734881 -0.20973577
0000f0 ba 5d 70 3d dc f2 25 be dd 4a 45 3d eb 69 e6 3e
       0.058683135 -0.16205925 0.0481671 0.45002684
000100 2c b0 e1 be 4e 14 a2 bd 51 b3 0f 3e 49 3d 08 3f
       -0.4407972 -0.07914029 0.14033248 0.53218514
000110 fa c3 3b 3e 6e 2a 46 3f 07 d6 68 3e cf fb f3 3d
       0.18336478 0.7740849 0.22737895 0.11913263
000120 01 d4 93 3e 9c 30 eb 3e b6 27 c1 3e 06 70 2e 3f
       0.28872684 0.45935524 0.3772561 0.68139684
000130 a1 fe 02 3f 41 3a 29 be db 04 14 3e 90 89 3a 3f
       0.5116978 -0.16526128 0.14454977 0.72866154
000140 c2 7d 42 be e1 e2 71 3e 3c 45 98 3e f6 78 00 3f
       -0.18993285 0.23621704 0.29740322 0.5018457
000150 4d 54 f1 be 10 8e d6 3e f1 6c dc be a6 7a 37 bf
       -0.4713463 0.4190526 -0.43051866 -0.7167152
000160 57 6c de be 21 0c 88 3e 98 d5 9a bf 0f 73 91 be
       -0.43442032 0.26571754 -1.2096434 -0.28408095
000170 e6 5c d8 bd 48 88 19 3f 0f 4c f5 3e 22 08 f2 3d
       -0.10564594 0.59973574 0.4790959 0.118179575

sequential_1/conv1d_4/Conv1D f4 [32, 1, 3, 32]
000000 3c aa c9 bc 92 df fc bd 71 ba 12 be c8 ed 3f 3e
       -0.024617307 -0.1234733 -0.14328934 0.1874305
000010 d1 cc 11 3e ab 5f 75 3e 0f 87 5c 3d a2 64 d5 3e
       0.14238288 0.23962276 0.05383974 0.4167834
000020 91 9a 8f 3d 40 79 6a bd ee ff 28 be f8 1a b6 be
       0.07011903 -0.05724454 -0.1650388 -0.3556745
000030 ac 0d e3 3d 01 1c de bd 27 8f 18 3c 64 1b f0 bd
       0.11086592 -0.10845185 0.009311474 -0.11723974
000040 16 5f bb 3d fc 16 9d be e0 c1 1e 3d 1e 64 a6 bd
       0.091489956 -0.30681598 0.038759112 -0.081245646
000050 67 19 08 3d 8d 38 0c be 31 b7 1e bc 6c 55 32 bd
       0.03322735 -0.13693447 -0.009687231 -0.043538496
000060 6f 64 5b bc 4b b5 18 be 94 6a b7 3d a1 c9 92 3e
       -0.013390644 -0.14912908 0.08955875 0.28669456
000070 e0 2b 00 bc 10 0c 99 3c 86 c8 d1 bd a8 f5 b0 bc
       -0.007822961 0.01868251 -0.10243325 -0.021601513
000080 75 36 2e 3e 62 51 4d be 71 a4 b7 3e 83 f7 8f 3e
       0.17012961 -0.20050576 0.35867646 0.28118524
000090 d7 9b a7 be e1 d8 83 3e 18 53 13 3e bd d7 4c 3e
       -0.32736084 0.25751403 0.14387167 0.20004173
0000a0 5f de 9e bd 50 fe e5 bd 84 a0 23 be c3 34 7f be
       -0.07757258 -0.11230147 -0.159792 -0.24922471
0000b0 a8 02 99 3d a2 f3 aa 3d b5 d7 bc be f6 ad 11 be
       0.0747121 0.083472505 -0.3688332 -0.14226517
0000c0 dd 6b 15 3e c1 5b 0b 3e 0e 5f 9a 3c a3 e6 82 3e
       0.14591928 0.1360922 0.018844154 0.25566587
0000d0 cc f8 73 3e 13 08 84 3d f3 9f 0a be e7 a3 0e 3e
       0.23825377 0.064468525 -0.13537578 0.13929711
0000e0 3c 71 bd 3d 3b 1e 18 3e 30 87 1c be 52 d1 fc bc
       0.09250113 0.14855282 -0.15285945 -0.03086153
0000f0 0c 1c 14 3e ea a9 44 be b7 29 a8 bd 94 29 61 be
       0.14463824 -0.19205442 -0.082110815 -0.21988517
000100 31 d3 b0 bd 09 a3 80 3d 02 34 54 3e 4d 37 23 3e
       -0.086340316 0.062810965 0.20722964 0.15939064
000110 3e 0d 3c be c5 02 0b be ad 53 75 3e bd a7 86 bd
       -0.18364426 -0.13575275 0.23957701 -0.06574962
000120 c4 a6 05 3e d1 96 de bc e0 86 86 3d ce 2d e7 3d
       0.13051897 -0.027171524 0.06568694 0.112880334
000130 db 2c 96 bb 05 8a 72 be f2 bd 3c be 51 08 b4 be
       -0.004582984 -0.23685463 -0.18431833 -0.35162595
000140 92 5f 2c be cb e1 81 3d 62 fa 10 be 75 27 b9 3c
       -0.16833332 0.06341895 -0.14158013 0.022601822
000150 bf 94 3f bd 1e 35 be bd 9f 49 f3 3d 59 a2 4b 3e
       -0.046772715 -0.09287475 0.118792765 0.1988615
000160 0d c6 ca 3d cd 17 ca 3c b3 d3 30 be bf 6e 02 bd
       0.099010564 0.024669552 -0.17268257 -0.031843897
000170 e7 41 62 3c 6e 50 41 be 19 02 80 be 78 87 ae 3c
       0.013809658 -0.18878338 -0.250016 0.02130483
000180 db f3 6f be b0 f2 96 3d 75 c9 a4 bd f4 d0 73 be
       -0.23432867 0.07370508 -0.080462374 -0.23810178
000190 ca 53 af 3d 72 40 3a be d0 17 ab bd 23 a8 e8 bd
       0.08560903 -0.18188646 -0.08354151 -0.113601945
0001a0 2c 86 f8 3d cb d5 81 be ce b6 d1 bd e8 7c b7 3e
       0.12134966 -0.25358424 -0.10239945 0.35837483
0001b0 f7 c8 bd 3d 17 6d 1c 3d 21 e5 9e 3e 2b fe d0 3d
       0.092668466 0.038189974 0.31034186 0.10204729
0001c0 0b a2 14 be 94 64 7c 3e 1e f7 ba bc 10 81 95 3c
       -0.1451494 0.24647743 -0.022822913 0.018250018
0001d0 23 fa 4b be 73 d4 45 3e 4e 0c af bd 22 15 15 bc
       -0.19919638 0.19319324 -0.08547269 -0.009099277
0001e0 f4 4c 38 3e b4 08 84 be af 2d 71 be 63 2b 8e 3d
       0.17998105 -0.2578789 -0.23552583 0.06941869
0001f0 a6 62 f4 bd 6f dd fd 3c fa 63 10 be ac db f3 bd
       -0.11932878 0.030989377 -0.14100638 -0.119071335
000200 23 86 b0 3e a8 00 01 3b 69 dd 70 bd d1 43 2f be
       0.34477338 0.001968423 -0.058804903 -0.17115714
000210 a7 fa 1f 3f 4c 00 af bd b5 62 a9 be 5f 5a ed 3d
       0.6249184 -0.085449785 -0.3308312 0.115895025
000220 63 38 58 be bf dd 59 3e 51 27 1a 3e f8 92 f0 bd
       -0.2111526 0.21275996 0.1505406 -0.11746782
000230 6c 8d 3f be 45 50 79 3e 97 51 3f 3e 10 7a 82 3e
       -0.18706292 0.24347027 0.18683468 0.2548375
000240 81 6e 8e bd c4 f8 15 be 3b fd ab 3d 90 08 ff be
       -0.06954671 -0.14645678 0.08397909 -0.4981122
000250 30 fd 1a be 12 fe 24 be bb 15 50 3e 18 24 3c be
       -0.15135646 -0.16112545 0.2032079 -0.18373144
000260 0e 45 9e 3d a6 34 aa bd c6 fa ac bd 52 d2 10 be
       0.07728015 -0.08310823 -0.08446269 -0.14142731
000270 df 58 66 bb 2f 54 0d 3e 7f 53 85 3e 85 ad 90 3c
       -0.0035148186 0.13801645 0.26040265 0.017660866
000280 35 78 89 3c 3b 06 30 be 92 79 18 be 2b 74 f2 3d
       0.016780952 -0.17189877 -0.14890125 0.118385635
000290 bb f2 45 3d 6b 9e 6c be 12 e5 30 bc f5 0f 70 3d
       0.04832719 -0.23107307 -0.010796802 0.058608968
0002a0 1f 1a d2 bd 1c 62 d0 bd 2f 0b 0b 3e cf a4 3c 3e
       -0.102588885 -0.10174963 0.13578485 0.18422244
0002b0 20 54 e1 3d 05 37 1b be b0 47 22 3e 52 f0 e3 3d
       0.11002374 -0.15157707 0.15847659 0.11129822
0002c0 89 ee fa bd 91 b6 ec 3d 81 8c 1a be f7 af 5a be
       -0.12252528 0.11558259 -0.1509266 -0.21356188
0002d0 83 55 52 3d 67 49 cf bd 71 87 f0 3d 9c b9 1f 3e
       0.05135108 -0.10121422 0.117445834 0.15598148
0002e0 e4 e6 1e bd 44 75 61 be a9 c8 49 be 0d 0c 17 3e
       -0.038794413 -0.2201739 -0.19705452 0.14750691
0002f0 af 67 f6 bc 9e 7b 68 3d e7 9b f6 bd ee cf 01 be
       -0.030078737 0.056758516 -0.12041455 -0.12676975
000300 73 ee 0a be 1a a9 87 be c4 c1 aa bd 1d f0 3c 3b
       -0.13567524 -0.26496202 -0.08337739 0.0028829642
000310 e7 0f c1 bd c4 0b 46 be bb 1c 82 bd ce e4 1e be
       -0.09426861 -0.19340426 -0.06353136 -0.1551697
000320 71 ad 05 bc dc 14 2d be 04 06 09 3e cd 1e a5 3d
       -0.008159027 -0.16902488 0.13381201 0.080625154
000330 9e 1f a5 bc 14 ad 01 be dc 50 37 3e 52 5d 96 be
       -0.020156678 -0.1266368 0.17901939 -0.29368073
000340 3c 34 13 3d 38 72 86 3c ea c2 d5 3c c5 3d 2f be
       0.035938486 0.016411886 0.026093919 -0.17113407
000350 62 66 dc bd 07 0e e0 3d bf 5b 98 bd 6d 8d a4 3d
       -0.107617155 0.109401755 -0.07439374 0.08034787
000360 cc 66 cb bc 07 6f 82 be a3 d3 b9 be e5 a3 85 3d
       -0.02482929 -0.25475332 -0.36294279 0.06525401
000370 1e 73 5d bb e2 56 83 3e 55 57 84 bc b9 e4 fc 3d
       -0.003379054 0.25652224 -0.016154924 0.12348313
000380 08 8f 5e 3e 4a a4 3d 3e 6e da 83 be 3e 80 f6 3d
       0.2173425 0.18519703 -0.25752586 0.12036179
000390 fd 61 8d 3e bf c2 61 bc cd aa 8d bd af 96 12 3e
       0.27613822 -0.013779341 -0.06917343 0.14315294
0003a0 c7 59 06 bd fe 76 6c 3e c9 5d 9e bd 49 d5 1d be
       -0.032800462 0.23092267 -0.07732732 -0.15413393
0003b0 31 f8 14 be fc ec 6d 3e bf 74 b1 3d b0 30 9e 3e
       -0.14547803 0.23234934 0.08664846 0.3089652
0003c0 3a c3 84 3e fa 5e 4f bd 54 5e 47 3e e1 2e 89 be
       0.25930196 -0.050627686 0.19469577 -0.26793578
0003d0 25 dc 12 bb 79 a0 f9 bc d4 21 d2 3d 04 ec b5 be
       -0.0022409048 -0.030472027 0.102603585 -0.35531628
0003e0 3c c5 14 be 3b cc 90 be 11 70 8f bb 72 98 fa bd
       -0.14528364 -0.28280815 -0.004377373 -0.12236108
0003f0 d9 5f 9f 3e f6 a3 3b 3e 17 c5 ad 3e 8e 8a 26 bc
       0.31127813 0.18324265 0.3393943 -0.01016487

sequential_1/conv1d_5/Conv1D f4 [64, 1, 3, 32]
000000 79 4d a0 bc b0 99 c5 bc e8 7a 35 3b da 7c 26 3c
       -0.019568192 -0.024121135 0.0027691666 0.010161603
000010 86 9c 91 b9 43 30 da 3d ee 06 37 bc 89 fc ed bc
       -0.00027773174 0.106537364 -0.011171086 -0.029051082
000020 3f 28 a6 be a0 82 54 bd aa 41 8a bd 78 fb 7e b8
       -0.3245258 -0.051882386 -0.06750806 -6.0792518e-05
000030 98 3d d2 3d 0b 8d 13 3c 0c 30 40 3d 9e c5 ab bc
       0.10265654 0.009005795 0.04692082 -0.020968255
000040 84 bb 87 be 3f 85 e4 bd 27 a1 87 3c 96 a1 e1 bc
       -0.2651025 -0.11158227 0.016556336 -0.02754287
000050 dd 7d 86 bd 72 3d a0 bb ca e6 a5 bd 2f 38 4f 3d
       -0.06566975 -0.0048901374 -0.0810066 0.05059069
000060 c4 4f 47 3d 52 ca 94 be 3a 88 68 be 7f f1 a9 3c
       0.048660055 -0.29060608 -0.22708216 0.020745037
000070 03 84 55 be 9e 7d 56 bd 03 1b 12 be f3 9c 85 bc
       -0.2085114 -0.05236589 -0.14268117 -0.01631019
000080 20 36 38 bc 0c f0 e1 3c ba 32 65 bd b6 f4 23 bd
       -0.011243373 0.027580284 -0.05595658 -0.040028296
000090 1a 70 d3 3a 7d 5c 2e 3d e1 83 f8 3c bf 63 1d bb
       0.0016131431 0.042568672 0.030336322 -0.0024015752
0000a0 d2 29 0e be 7d 59 b1 bf 7d d6 80 bd cf e8 b5 3d
       -0.1388314 -1.3855435 -0.062909104 0.08882295
0000b0 81 cc 67 3c b0 07 e5 bc c9 70 14 3c ab 9d 32 be
       0.014147879 -0.027957767 0.009060093 -0.17442958
0000c0 3c 0a 34 bf 92 67 66 bf d2 5e a9 bf 72 6a 46 3b
       -0.70328116 -0.90001786 -1.3232062 0.0030275849
0000d0 a7 fb b2 bc 82 bd ce 3c d9 27 cc bd 82 e6 9e be
       -0.021848513 0.025236849 -0.09968538 -0.31035239
0000e0 3b 49 b1 be 91 71 36 bf 3a 38 47 bc ba 85 a0 bd
       -0.34626183 -0.7126704 -0.012159402 -0.07838006
0000f0 bd 42 c1 bc 7e 7f a1 be 99 50 85 be c4 b6 8d 3c
       -0.023591394 -0.3154258 -0.26038054 0.017299064
000100 f7 cc 07 3d bf b4 43 be 13 01 d4 bc dd e0 75 be
       0.033154454 -0.19111918 -0.025879418 -0.2401156
000110 82 55 ca 3c 17 50 02 3d b0 33 c0 bf a4 a9 bc bf
       0.024698976 0.03181466 -1.5015774 -1.473927
000120 81 30 22 bf ad b0 0d 3d d5 69 a7 bc 3c 21 d9 bc
       -0.6335526 0.03459232 -0.020436207 -0.026505105
000130 29 9f 1a 3e 4a 01 bf bd fa cd 0d 3e 96 1e 63 3c
       0.15099777 -0.09326418 0.13848105 0.013862273
000140 10 aa 9a 3c 53 c4 99 3d b2 af 45 bc e2 0a 89 bc
       0.01887992 0.07508149 -0.012065815 -0.016728822
000150 7f d6 9a 3c 15 36 1e bc 99 f6 98 3d f4 bf 82 be
       0.018901108 -0.009656449 0.0746891 -0.25537074
000160 23 a2 d2 be ad 0c 18 3c 49 4d 21 be c4 6b 80 3c
       -0.41139325 0.009280366 -0.15752138 0.015676387
000170 20 0e 41 bd d2 6e a8 be 9d af a8 be 58 dc 61 bd
       -0.04713261 -0.3289705 -0.32946482 -0.055141777
000180 04 90 2a bb 7b fc 9b 3d 05 29 2f 3d 59 04 6a 3d
       -0.0026025781 0.07616516 0.04276373 0.057133052
000190 2d 46 8a bc 6f cf 4a bd 66 e8 66 bc 12 49 b5 3b
       -0.016879166 -0.04951423 -0.014093494 0.0055323923
0001a0 7e 1f 1e be 07 92 2a bd 8c cf ad bd 20 43 24 bd
       -0.15441701 -0.04164317 -0.08486852 -0.040103078
0001b0 25 34 c3 be b7 ee 0e bd 9c 3b a1 3b d8 60 7f be
       -0.3812572 -0.034895625 0.004920436 -0.24939287
0001c0 07 a3 ff bc 79 0f 83 bd c1 e1 38 bd 79 38 d9 bc
       -0.031205667 -0.063994355 -0.04513717 -0.026516186
0001d0 26 a9 fe 3c aa 5f e4 bc aa d7 be bd 60 6c fb be
       0.031086516 -0.027877647 -0.093184784 -0.4910612
0001e0 88 5e 66 bf 4c b9 56 bd ba b5 46 be b4 bb f3 ba
       -0.89987993 -0.052422807 -0.1940526 -0.0018595369
0001f0 df e9 90 bc 68 7c 47 bf 57 29 75 be 4d af 10 bd
       -0.017689643 -0.77924204 -0.23941551 -0.03532343
000200 23 32 61 bc 61 51 56 bd 19 a4 39 bf 84 09 3a be
       -0.013744864 -0.052323703 -0.7251602 -0.18167692
000210 68 2e 84 3c ed e1 13 3e d0 10 fd bc 88 45 71 bd
       0.01613541 0.14441653 -0.030891806 -0.0589042
000220 5b da 2d 3d b6 0d 8d 3d 6e f6 d3 3c 53 b6 1c 3d
       0.042444568 0.06887381 0.025874343 0.038259815
000230 6f 01 36 3e 04 e8 1c bf e8 45 e2 be 21 fb d6 bd
       0.17773984 -0.6129153 -0.4419396 -0.10497118
000240 b3 43 94 3b ee 22 c7 3c 1a 2f 2a bd e1 89 9d be
       0.004524672 0.024308648 -0.041548826 -0.30769256
000250 3a ef 81 bd 78 c7 d1 3c d2 91 9f 3d 82 76 fe 3d
       -0.06344457 0.02560781 0.07791485 0.12424947
000260 c2 62 23 be 6a c7 03 3c 92 09 97 bb 92 f7 56 3d
       -0.15955642 0.0080431495 -0.004609295 0.052482195
000270 14 d9 b4 be f3 ad 51 3c a2 89 8e be c7 b4 ad 3c
       -0.35321867 0.01279782 -0.2783938 0.021204365
000280 eb fd f0 be 3f 28 72 bd 02 86 a3 3d 8a 7f 84 bb
       -0.47068724 -0.059120413 0.07984544 -0.004043524
000290 1e 59 d1 be 89 01 0e be 2e e2 43 3c df b5 49 bc
       -0.40888304 -0.13867773 0.011955781 -0.012311428
0002a0 04 0a ad bd 79 d1 2b 3c 85 56 94 3d c3 cb 8d be
       -0.08449176 0.010486954 0.07243065 -0.2769452
0002b0 69 cf e9 bc cc 07 62 3d 38 8a 2b be 15 4e bc 3c
       -0.028541284 0.055183217 -0.16751945 0.022986451
0002c0 67 ab 88 3c d3 0b 45 bc 0c 3b 7e 3c 6c e7 0d bf
       0.016683294 -0.012026745 0.015517008 -0.55431247
0002d0 a1 7a d1 3d d5 44 f6 bd 2a f0 e8 3d af 71 95 3e
       0.10228468 -0.120248474 0.11373933 0.29188296
0002e0 02 68 21 3e 6e 8e 41 3d 65 55 a7 be 5f 50 ff bd
       0.15762332 0.047254972 -0.32682338 -0.124665014
0002f0 4d 21 1a bf e1 d5 e6 3e cf 98 17 3f f4 e8 36 bf
       -0.6020706 0.45085052 0.5921754 -0.7144921
000300 1d 04 9d bd 42 d6 a7 bd 90 e8 60 bf 73 3a 3d be
       -0.076668 -0.08195163 -0.8785486 -0.18479328
000310 f2 33 38 3c 4b 97 98 be cf 33 c4 bd 25 ed ee bd
       0.0112428535 -0.29802927 -0.09580194 -0.116663255
000320 58 7a 34 3e 07 77 5e 3d aa 02 bc 3c 53 03 b6 bc
       0.17624795 0.054312732 0.02295049 -0.022218382
000330 f0 48 31 be e0 e1 4a bf f0 a7 88 be 18 91 f3 3c
       -0.1731298 -0.7925091 -0.26690626 0.029732272
000340 be 6f 4c 3d d4 c3 00 be 92 d5 3a bd e6 7e 18 bf
       0.049911253 -0.12574703 -0.045613833 -0.5956863
000350 72 b2 d5 bb 38 13 d4 bc 80 cf 2a 3c 98 e7 48 be
       -0.0065215165 -0.02588807 0.010425448 -0.19619596
000360 05 8f 8f be 19 84 bb bb 42 1e 6d bd b7 1a 0e bb
       -0.28038803 -0.0057225344 -0.057890184 -0.0021683404
000370 d6 4b df be 58 38 a0 bc b7 a2 70 3e 28 e8 a7 bd
       -0.43612546 -0.019558117 0.23499571 -0.08198577
000380 42 3f e9 bc 80 04 79 3d aa 9b 4b be 81 cc 75 bd
       -0.028472546 0.060795307 -0.198836 -0.060009483
000390 1c f1 99 bf 91 36 44 3e 7a 9c 5d 3c 55 58 a8 3c
       -1.2026706 0.1916144 0.013526076 0.020549932
0003a0 22 55 9f bc b0 2b 35 3d 2d 90 22 bb 24 a0 36 bf
       -0.019449774 0.044231117 -0.0024805174 -0.71338105
0003b0 b5 9d 20 3d c1 4b eb bd 62 3e c7 3d 75 0d 1a be
       0.0392129 -0.11489058 0.097286955 -0.15044196
0003c0 7f dd eb bc e2 db 11 bd f7 87 9b 3d 9f 14 6f be
       -0.028792141 -0.035610087 0.075942926 -0.2334771
0003d0 17 97 29 be 84 38 8d be 64 9a 0a be 5f e8 35 be
       -0.16561542 -0.2758218 -0.13535458 -0.17764424
0003e0 33 6c 60 bd 56 93 6e 3c e7 c4 31 bd 40 79 86 3d
       -0.054790687 0.014561495 -0.04340067 0.06566095
0003f0 67 e1 11 3d b8 c1 aa 3d 28 fc 3a 3c 3c 1e 45 be
       0.03561535 0.0833773 0.011412658 -0.19249815
